lib/windows/resources/Banuba/bnb-resources/flow/bg_desktop_vert.tflite (tflite, 335504 bytes, 110 tensors)

model/Conv/StatefulPartitionedCall/StatefulPartitionedCall/Conv2D/ReadVariableOp f2 [16, 3, 3, 3]
0	0x39af	0.7104
1	0x3c47	1.069
2	0x36fe	0.437
3	0x3ab6	0.839
4	0x3c9c	1.152
5	0x364d	0.3938
6	0x357f	0.3435
7	0x34df	0.3044
8	0x3523	0.321
9	0xc040	-2.125
10	0xc1d4	-2.914
11	0xbc67	-1.101
12	0xc02f	-2.092
13	0xc1b4	-2.852
14	0xbc8e	-1.139
15	0xb980	-0.6875
16	0xbbce	-0.9756
17	0xb8a8	-0.582
18	0x3c61	1.095
19	0x3f30	1.797
20	0x3a78	0.8086
21	0x3cb5	1.177
22	0x3e95	1.6455
23	0x38d9	0.606
24	0x3776	0.4663
25	0x31bb	0.1791
26	0x3121	0.1603
27	0x2244	0.01224
28	0x9ce3	-0.004772
29	0xa013	-0.00796
30	0x2428	0.01624
31	0x9f87	-0.00735
32	0xa17c	-0.01071
33	0x2006	0.00786
34	0x9c50	-0.00421
35	0x9cf9	-0.004856
36	0x1f51	0.007145
37	0x98c5	-0.002329
38	0x9e1a	-0.00596
39	0x206d	0.008644
40	0x9bea	-0.003864
41	0x9d69	-0.005283
42	0x19ef	0.002897
43	0x997a	-0.002674
44	0x94f8	-0.001213
45	0x2031	0.00819
46	0x9b72	-0.003635
47	0x9da7	-0.00552
48	0x2261	0.01246
49	0x9e52	-0.006172
50	0x9fa6	-0.00747
51	0x1f19	0.00693
52	0x9c8b	-0.004436
53	0x9c3f	-0.004147
54	0x2c8b	0.071
55	0xb1b8	-0.1787
56	0x2eb0	0.1045
57	0x2c09	0.06305
58	0xb42b	-0.2605
59	0x2ecd	0.10626
60	0x3052	0.135
61	0xb5ee	-0.3706
62	0x326d	0.2008
63	0x317d	0.1715
64	0xb6dd	-0.429
65	0x345c	0.2725
66	0x3355	0.2291
67	0xb84f	-0.5386
68	0x3414	0.255
69	0x3597	0.3494
70	0xb98a	-0.6924
71	0x364a	0.393
72	0x32b7	0.2098
73	0xb830	-0.5234
74	0x35a3	0.3523
75	0x3516	0.3179
76	0xb936	-0.6514
77	0x35ba	0.358
78	0x36fe	0.437
79	0xba19	-0.762
80	0x3701	0.4377
81	0x3842	0.532
82	0x499b	11.21
83	0x4151	2.658
84	0xb097	-0.1434
85	0x3611	0.3792
86	0xbd41	-1.313
87	0x3964	0.674
88	0xc08d	-2.275
89	0x3109	0.1573
90	0x3621	0.383
91	0xb382	-0.2346
92	0x3809	0.5044
93	0x3a5d	0.7954
94	0xb969	-0.6763
95	0xb113	-0.1586
96	0xb039	-0.132
97	0x29c2	0.04498
98	0x3c29	1.04
99	0x3753	0.4578
100	0xc020	-2.062
101	0x3c09	1.009
102	0xb2f7	-0.2177
103	0xb481	-0.2815
104	0x3767	0.4626
105	0xbcaf	-1.171
106	0x3ef5	1.739
107	0xb5a2	-0.352
108	0xa508	-0.01965
109	0xa57c	-0.02142
110	0x97be	-0.00189
111	0xa5ee	-0.02316
112	0xa94e	-0.04144
113	0xa129	-0.01008
114	0xa25f	-0.01244
115	0xa442	-0.01663
116	0xa239	-0.01215
117	0xa182	-0.01076
118	0xa1f8	-0.01166
119	0x963e	-0.001524
120	0xa14f	-0.01037
121	0xa563	-0.02104
122	0x9f87	-0.00735
123	0x9897	-0.002241
124	0x116e	0.000663
125	0x9dd8	-0.005707
126	0x1bf4	0.003883
127	0x216f	0.01061
128	0x842a	-6.354e-05
129	0x1f7b	0.007305
130	0x1fe4	0.007706
131	0x1028	0.0005074
132	0x1934	0.00254
133	0x2372	0.01454
134	0x112c	0.0006313
135	0x29cb	0.04526
136	0x21eb	0.01156
137	0x1aad	0.00326
138	0x2d8f	0.08685
139	0x2d07	0.07855
140	0x9bbb	-0.003775
141	0x2722	0.02786
142	0x2067	0.0086
143	0x2182	0.01076
144	0x2cb2	0.07336
145	0x29e5	0.04605
146	0x2660	0.0249
147	0x3001	0.1251
148	0x309f	0.1444
149	0x24f8	0.01941
150	0x2c32	0.06555
151	0x2aae	0.0522
152	0x9834	-0.002052
153	0x27a1	0.0298
154	0x2c48	0.0669
155	0x2c68	0.06885
156	0x2e6d	0.1004
157	0x315f	0.1678
158	0x2ad4	0.05334
159	0x25ae	0.02219
160	0x2b3c	0.05652
161	0x1a5a	0.003101
162	0x1a26	0.003002
163	0xa179	-0.01069
164	0xa643	-0.02446
165	0xa6ec	-0.02704
166	0xaaf2	-0.05426
167	0xa223	-0.011986
168	0xa4ee	-0.01926
169	0x9e9f	-0.006466
170	0x2057	0.00848
171	0xaf6f	-0.11615
172	0xb386	-0.2351
173	0xae24	-0.09595
174	0xaeae	-0.1044
175	0xb389	-0.2355
176	0xac21	-0.0645
177	0xa116	-0.00993
178	0xa5c0	-0.02246
179	0x206f	0.00866
180	0xad1b	-0.0798
181	0xb007	-0.1259
182	0xac43	-0.0666
183	0xaa57	-0.04953
184	0xac1e	-0.06433
185	0xa6f0	-0.0271
186	0x2991	0.0435
187	0x29db	0.04575
188	0x242d	0.01631
189	0xba57	-0.7925
190	0xbc60	-1.094
191	0xb6a9	-0.4163
192	0x32e1	0.215
193	0xb741	-0.4534
194	0x322d	0.193
195	0x3a36	0.7764
196	0x3f42	1.814
197	0x397d	0.686
198	0xbcca	-1.197
199	0xc0fa	-2.488
200	0xbafb	-0.8726
201	0x3036	0.1316
202	0xbdc7	-1.444
203	0x2949	0.0413
204	0x3d52	1.33
205	0x40d7	2.42
206	0x3a70	0.8047
207	0xb7a5	-0.4778
208	0xba5d	-0.7954
209	0xb6a9	-0.4163
210	0x321d	0.191
211	0xb593	-0.3484
212	0x9d5f	-0.005245
213	0x37af	0.4802
214	0x3e4a	1.572
215	0x34c2	0.2974
216	0xa482	-0.01761
217	0xb808	-0.504
218	0xaf76	-0.1166
219	0xb1f4	-0.186
220	0xbc47	-1.069
221	0xb1cb	-0.181
222	0xb5fc	-0.374
223	0xa795	-0.02962
224	0xb472	-0.2778
225	0xb3b1	-0.2404
226	0xbccd	-1.2
227	0xb04b	-0.1342
228	0xb56c	-0.3389
229	0xbe75	-1.614
230	0xb499	-0.2874
231	0xb846	-0.534
232	0xb8de	-0.6084
233	0xb5ee	-0.3706
234	0xb416	-0.2554
235	0xb7f2	-0.4966
236	0xb481	-0.2815
237	0xb5fb	-0.3738
238	0xbc38	-1.055
239	0xb48d	-0.2844
240	0xb867	-0.5503
241	0xaeab	-0.1042
242	0xb5d0	-0.3633
243	0xb587	-0.3455
244	0xb6ab	-0.4167
245	0xb395	-0.2369
246	0xbb4e	-0.913
247	0xbe0e	-1.514
248	0xb9c6	-0.7217
249	0xb980	-0.6875
250	0xbcb6	-1.178
251	0xb7ab	-0.4792
252	0xb77d	-0.468
253	0xbae8	-0.8633
254	0xa2c6	-0.01323
255	0xb88d	-0.569

model/Conv/StatefulPartitionedCall/StatefulPartitionedCall/Conv2D_bias f2 [16]
0	0x4aa4	13.28
1	0x2b91	0.0591
2	0x4ca6	18.6
3	0xc9b4	-11.41
4	0x340c	0.253
5	0x3e01	1.501
6	0x41f3	2.975
7	0x41d2	2.91
8	0x4bcb	15.586
9	0x4176	2.73
10	0x4055	2.166
11	0x1cb4	0.004593
12	0x41ab	2.834
13	0x4165	2.697
14	0x471b	7.105
15	0xb9d7	-0.73

model/conv2d/Conv2D/ReadVariableOp f2 [24, 1, 1, 40]
0	0xb61d	-0.382
1	0x3574	0.3408
2	0x284c	0.03357
3	0xb537	-0.326
4	0xb542	-0.3286
5	0x3113	0.1586
6	0xb17a	-0.1711
7	0x317f	0.1718
8	0x2f69	0.1158
9	0x2c98	0.0718
10	0x30b1	0.1466
11	0x2cad	0.07306
12	0xa5bb	-0.02238
13	0xb054	-0.1353
14	0x35d5	0.3645
15	0xad09	-0.0787
16	0xb037	-0.1317
17	0xb65d	-0.3977
18	0xb58c	-0.3467
19	0xa00e	-0.00792
20	0xb547	-0.3298
21	0x3704	0.4385
22	0xadca	-0.09045
23	0xb563	-0.3367
24	0x3898	0.574
25	0xab3a	-0.05646
26	0x30e0	0.1523
27	0xa6f4	-0.02716
28	0xb48f	-0.285
29	0xaa05	-0.04703
30	0xa880	-0.03516
31	0x3438	0.2637
32	0xaf14	-0.1106
33	0x34bc	0.296
34	0xb609	-0.3772
35	0x33a3	0.2386
36	0x326b	0.2006
37	0xb820	-0.5156
38	0xb0ab	-0.1459
39	0x315e	0.1677
40	0x30d0	0.1504
41	0x16d3	0.001666
42	0xb3ce	-0.2439
43	0x304a	0.134
44	0xb3da	-0.2454
45	0xb803	-0.5015
46	0xac54	-0.0676
47	0x2a56	0.0495
48	0x2f26	0.1117
49	0xb88a	-0.5674
50	0xa85a	-0.034
51	0xb094	-0.1431
52	0x31a4	0.1763
53	0xada3	-0.0881
54	0xb53c	-0.3271
55	0x308c	0.1421
56	0x34e4	0.3057
57	0x282b	0.03256
58	0xb780	-0.4688
59	0xa121	-0.01002
60	0x333b	0.226
61	0x2b32	0.0562
62	0x2ca3	0.07245
63	0x334e	0.2283
64	0xb07c	-0.1401
65	0xb00c	-0.1265
66	0xb465	-0.2747
67	0x3773	0.4656
68	0xaea7	-0.10394
69	0x378e	0.4722
70	0x24ee	0.01926
71	0x35d7	0.365
72	0xb117	-0.159
73	0x3116	0.1589
74	0x2ce2	0.0763
75	0xad04	-0.07837
76	0x34b8	0.295
77	0xb105	-0.1569
78	0x34f0	0.3086
79	0x3157	0.1669
80	0x294c	0.04138
81	0xb10f	-0.1581
82	0xafdc	-0.1228
83	0x3129	0.1613
84	0x3084	0.1411
85	0x36e9	0.432
86	0x2c05	0.0628
87	0xb012	-0.1272
88	0xa514	-0.01984
89	0x329b	0.2064
90	0x365c	0.3975
91	0xb0db	-0.1517
92	0xb68b	-0.409
93	0x2d7c	0.0857
94	0xa7a2	-0.02982
95	0x2e2f	0.0966
96	0x328c	0.2046
97	0x2aa4	0.05188
98	0xb1e2	-0.1838
99	0xb132	-0.1624
100	0xb54f	-0.3318
101	0xa960	-0.042
102	0xb850	-0.539
103	0xaf7a	-0.1168
104	0x2f0f	0.1103
105	0xb443	-0.2664
106	0x2a46	0.049
107	0x342e	0.2612
108	0x3725	0.4465
109	0xb35c	-0.23
110	0xa476	-0.01743
111	0xb19d	-0.1754
112	0xb446	-0.267
113	0x2b82	0.05865
114	0xb011	-0.1271
115	0xa38b	-0.01473
116	0xa815	-0.0319
117	0x305b	0.1361
118	0xb024	-0.1294
119	0xb625	-0.384
120	0x1eb7	0.006557
121	0x3316	0.2214
122	0xb4b1	-0.2932
123	0xb451	-0.2698
124	0x366b	0.4011
125	0x36eb	0.4324
126	0xb436	-0.2632
127	0xb633	-0.3875
128	0xb07c	-0.1401
129	0x3727	0.447
130	0xb407	-0.2517
131	0xa3fb	-0.01559
132	0x34d5	0.302
133	0x2af9	0.05447
134	0x2043	0.00832
135	0x2d56	0.0834
136	0x3460	0.2734
137	0xb0e3	-0.1527
138	0x26bd	0.02632
139	0xb263	-0.1996
140	0x3440	0.2656
141	0x3033	0.1312
142	0x3191	0.174
143	0x2ccc	0.07495
144	0x30e2	0.1526
145	0x2736	0.02817
146	0x33d0	0.2441
147	0xb6d6	-0.4272
148	0x2abf	0.0527
149	0xb9c5	-0.721
150	0xb0a7	-0.1454
151	0x2d20	0.0801
152	0x3436	0.2632
153	0xadeb	-0.09247
154	0x330b	0.2201
155	0x2cd7	0.0756
156	0x3059	0.1359
157	0xb61f	-0.3826
158	0x2c6e	0.0692
159	0x21ee	0.01158
160	0x349d	0.2883
161	0x3488	0.2832
162	0xb0c2	-0.1487
163	0x3104	0.1567
164	0x330e	0.2205
165	0x3224	0.1919
166	0x3413	0.2546
167	0xae40	-0.09766
168	0xac95	-0.0716
169	0x2ecd	0.10626
170	0x3025	0.1295
171	0xac51	-0.06744
172	0x3494	0.2861
173	0x25fc	0.02338
174	0x3576	0.3413
175	0x3606	0.3765
176	0x2c67	0.0688
177	0xb15a	-0.1672
178	0xb275	-0.2018
179	0xb4b4	-0.294
180	0xb001	-0.1251
181	0xa409	-0.01576
182	0x2002	0.00783
183	0xb1a1	-0.1759
184	0xb461	-0.2737
185	0xb05e	-0.1365
186	0x2f40	0.1133
187	0x328a	0.2043
188	0xb13f	-0.164
189	0x30d5	0.151
190	0xae15	-0.09503
191	0xae24	-0.09595
192	0x3528	0.3223
193	0x2edd	0.10724
194	0x1eb8	0.00656
195	0x36ca	0.4243
196	0xb8bb	-0.5913
197	0x320f	0.1893
198	0xac6d	-0.06915
199	0xabcf	-0.061
200	0xb367	-0.2313
201	0x2dad	0.0887
202	0x304c	0.1343
203	0x353f	0.328
204	0x2fd3	0.12225
205	0xacff	-0.07806
206	0xaf46	-0.11365
207	0x9e4e	-0.006157
208	0xb642	-0.391
209	0xb5ef	-0.3708
210	0x2765	0.02888
211	0x3076	0.1394
212	0xb4ec	-0.3076
213	0x2fc6	0.12146
214	0x34f8	0.3105
215	0x0707	0.0001072
216	0xa2de	-0.01341
217	0xb581	-0.344
218	0x33fb	0.2494
219	0xb209	-0.1886
220	0xa9ad	-0.04434
221	0x2ce2	0.0763
222	0x2368	0.014465
223	0x31c0	0.1797
224	0x2fb5	0.1204
225	0x353b	0.327
226	0xb006	-0.1257
227	0x338c	0.2358
228	0xa942	-0.04108
229	0x36eb	0.4324
230	0xafca	-0.1217
231	0x37e6	0.4937
232	0xae3b	-0.09735
233	0x2f19	0.1109
234	0x2952	0.04156
235	0xb1b8	-0.1787
236	0x3199	0.1749
237	0x354b	0.3308
238	0xb14c	-0.1655
239	0xb44c	-0.2686
240	0x345f	0.2732
241	0x3376	0.2332
242	0xad12	-0.0792
243	0x303a	0.1321
244	0x2eb3	0.1047
245	0x2cf8	0.07764
246	0x370e	0.441
247	0xb07c	-0.1401
248	0x34c5	0.298
249	0x1fd4	0.007645
250	0x3171	0.17
251	0x231b	0.01388
252	0x35ac	0.3545
253	0x3412	0.2544
254	0x29b8	0.04468
255	0xb22e	-0.1931

model/conv2d/Conv2D_bias f2 [24]
0	0xb526	-0.3218
1	0xaf12	-0.1105
2	0x343f	0.2654
3	0xb419	-0.256
4	0x9cbd	-0.004627
5	0xae4c	-0.0984
6	0x34f1	0.3088
7	0x9e3f	-0.0061
8	0x9b90	-0.003693
9	0xb12f	-0.162
10	0xa4c7	-0.01866
11	0x31dc	0.1831
12	0xb151	-0.1661
13	0xb00f	-0.1268
14	0x2ba8	0.0598
15	0xb070	-0.1387
16	0x32a0	0.207
17	0x32bf	0.2108
18	0xa290	-0.01282
19	0xb462	-0.274
20	0x2e31	0.09674
21	0xb104	-0.1567
22	0x35b8	0.3574
23	0xb25f	-0.1991

model/conv2d_1/Conv2D/ReadVariableOp f2 [24, 1, 1, 48]
0	0xb359	-0.2296
1	0x317f	0.1718
2	0x36a7	0.4158
3	0xb3f7	-0.2489
4	0xae41	-0.0977
5	0x2dc5	0.09015
6	0xb2a6	-0.2078
7	0xad7a	-0.0856
8	0xb05c	-0.1362
9	0x2fd0	0.1221
10	0x2789	0.02943
11	0x26fc	0.02728
12	0x2cc4	0.07446
13	0x2f32	0.1124
14	0x2293	0.01284
15	0x3115	0.1588
16	0x2ca8	0.07275
17	0xb538	-0.3262
18	0xb8c9	-0.598
19	0xb473	-0.278
20	0x307f	0.1405
21	0x25e1	0.02296
22	0x25e5	0.02303
23	0xaad9	-0.0535
24	0xaa18	-0.0476
25	0x2f6d	0.116
26	0xb502	-0.313
27	0xb256	-0.198
28	0xb442	-0.266
29	0xb3fb	-0.2494
30	0xb9e4	-0.7363
31	0x2e1e	0.0956
32	0xb24b	-0.1967
33	0xb03f	-0.1327
34	0xb4fc	-0.3115
35	0xb409	-0.2522
36	0x36b3	0.4187
37	0xb5ab	-0.3542
38	0xa78a	-0.02945
39	0xb30b	-0.2201
40	0x304d	0.1344
41	0xb14e	-0.1658
42	0x311f	0.16
43	0x3887	0.566
44	0xb187	-0.1727
45	0xb531	-0.3245
46	0xb0a3	-0.1449
47	0xb545	-0.3293
48	0x2e9b	0.1032
49	0x2ea1	0.1036
50	0x2d0e	0.079
51	0x30cd	0.15
52	0x3736	0.4507
53	0xa8c6	-0.0373
54	0xace4	-0.0764
55	0xb581	-0.344
56	0xaf62	-0.11536
57	0xb0df	-0.1522
58	0x377f	0.4685
59	0xb4a1	-0.2893
60	0x2d3f	0.082
61	0xb1f3	-0.1859
62	0x3533	0.325
63	0x374e	0.4565
64	0xb46d	-0.2766
65	0xb431	-0.262
66	0x2928	0.04028
67	0x3152	0.1663
68	0xb183	-0.1722
69	0xade1	-0.09186
70	0xae0f	-0.09467
71	0x2fb8	0.1206
72	0x2d38	0.08154
73	0xb055	-0.1354
74	0xb587	-0.3455
75	0xaf78	-0.1167
76	0xb21b	-0.1908
77	0xa9f7	-0.0466
78	0x3315	0.2213
79	0x29f3	0.04648
80	0xb101	-0.1564
81	0x2f93	0.11835
82	0x34d5	0.302
83	0xafdc	-0.1228
84	0xb327	-0.2235
85	0x34b2	0.2935
86	0x2b86	0.05878
87	0xb741	-0.4534
88	0x2d5b	0.0837
89	0xad73	-0.08514
90	0xa8d9	-0.03787
91	0x2ccf	0.07513
92	0x31af	0.1776
93	0x27a4	0.02985
94	0xb032	-0.1311
95	0xb0e7	-0.1532
96	0xb098	-0.1436
97	0xb0ec	-0.1538
98	0x345d	0.2727
99	0x337b	0.2338
100	0xb0ad	-0.1461
101	0x342e	0.2612
102	0xb3d1	-0.2443
103	0x33bc	0.2417
104	0x340f	0.2537
105	0xac37	-0.06586
106	0xb57a	-0.3423
107	0xb033	-0.1312
108	0xa9b9	-0.0447
109	0xb0bf	-0.1483
110	0x3355	0.2291
111	0x3311	0.2208
112	0x34a0	0.289
113	0xac36	-0.0658
114	0xb310	-0.2207
115	0x2f59	0.1148
116	0x273b	0.02824
117	0xb374	-0.2329
118	0x306e	0.1384
119	0x3250	0.1973
120	0x94e2	-0.001192
121	0xb181	-0.172
122	0xb104	-0.1567
123	0xb527	-0.322
124	0xb31a	-0.2219
125	0xb2d9	-0.214
126	0x3878	0.5586
127	0x2dcc	0.0906
128	0x23fb	0.01559
129	0x2ded	0.0926
130	0x328f	0.205
131	0x18cb	0.00234
132	0xb37b	-0.2338
133	0x3635	0.388
134	0xb1b3	-0.1781
135	0xb25b	-0.1986
136	0x3070	0.1387
137	0x24f5	0.01936
138	0x2cb1	0.0733
139	0x293c	0.0409
140	0x26d7	0.02672
141	0x2d6f	0.0849
142	0xb524	-0.3213
143	0x24ac	0.01825
144	0x3726	0.4468
145	0x2c38	0.0659
146	0xb83d	-0.53
147	0x301f	0.1288
148	0x2de1	0.09186
149	0xb5f4	-0.372
150	0x3018	0.1279
151	0x3060	0.1367
152	0xb52e	-0.3237
153	0xb41c	-0.2568
154	0x3554	0.333
155	0x382b	0.521
156	0x33b8	0.2412
157	0xa879	-0.03494
158	0x3387	0.2352
159	0x3832	0.5244
160	0xb1c6	-0.1804
161	0x251c	0.01996
162	0xb798	-0.4746
163	0x29b9	0.0447
164	0x330f	0.2206
165	0xb6c4	-0.4229
166	0x31d2	0.1819
167	0xa48c	-0.01776
168	0x36d1	0.426
169	0xb54f	-0.3318
170	0xb05a	-0.136
171	0xb143	-0.1644
172	0x321c	0.1909
173	0x34e0	0.3047
174	0x2b9d	0.05948
175	0x29bd	0.04483
176	0xb692	-0.4106
177	0x3110	0.1582
178	0xa273	-0.012596
179	0x2a6c	0.05017
180	0xb38e	-0.2361
181	0x3548	0.33
182	0xa292	-0.01283
183	0xb816	-0.5107
184	0xa6cd	-0.02657
185	0x3321	0.2228
186	0xb5b2	-0.356
187	0x34b1	0.2932
188	0xb48b	-0.284
189	0x3500	0.3125
190	0xb01d	-0.1285
191	0x294d	0.0414
192	0xb17f	-0.1718
193	0xb4fa	-0.311
194	0x1e03	0.00587
195	0x3010	0.127
196	0xa83c	-0.03308
197	0xaf49	-0.11383
198	0x2246	0.01225
199	0x3177	0.1708
200	0x3369	0.2316
201	0xaffd	-0.1248
202	0x3425	0.259
203	0x345a	0.272
204	0xb595	-0.3489
205	0xb496	-0.2866
206	0x3619	0.381
207	0x34ad	0.2922
208	0x33ad	0.2399
209	0x2f5f	0.1152
210	0xb17a	-0.1711
211	0xb544	-0.329
212	0x33d8	0.2451
213	0xb845	-0.5337
214	0x3218	0.1904
215	0xb4fa	-0.311
216	0x3467	0.2751
217	0xa614	-0.02374
218	0x33d6	0.2449
219	0x3370	0.2324
220	0xaca6	-0.07263
221	0xaeed	-0.1082
222	0xac8f	-0.0712
223	0xb4e5	-0.306
224	0xab6d	-0.058
225	0x2ca7	0.0727
226	0x2dd5	0.0911
227	0x2797	0.02965
228	0x3317	0.2216
229	0xb000	-0.125
230	0xb344	-0.227
231	0x347a	0.2798
232	0x319d	0.1754
233	0x3443	0.2664
234	0xb6e4	-0.4307
235	0xaf4d	-0.1141
236	0x28c0	0.0371
237	0xae32	-0.0968
238	0xae2d	-0.0965
239	0xac39	-0.066
240	0x33af	0.2401
241	0x369c	0.413
242	0x2247	0.01226
243	0x2a01	0.0469
244	0x2d20	0.0801
245	0xa826	-0.0324
246	0xa73a	-0.02823
247	0x2695	0.02571
248	0x31ac	0.1772
249	0xb562	-0.3364
250	0x3205	0.1881
251	0x2adc	0.0536
252	0xb51b	-0.319
253	0xb1fe	-0.1873
254	0x2e6a	0.1002
255	0x32e0	0.2148

model/conv2d_1/Conv2D_bias f2 [24]
0	0xb12a	-0.1614
1	0xaf2b	-0.112
2	0x147b	0.001094
3	0x3159	0.1671
4	0x2d5b	0.0837
5	0xac53	-0.06757
6	0xb519	-0.3186
7	0xabfb	-0.06235
8	0x2320	0.013916
9	0x3461	0.2737
10	0xaf61	-0.1153
11	0x2ccb	0.0749
12	0xb7de	-0.4917
13	0xa9d9	-0.0457
14	0xb1a3	-0.1761
15	0xb678	-0.4043
16	0xb78b	-0.4714
17	0x3235	0.194
18	0xa56f	-0.02122
19	0xb1e2	-0.1838
20	0xb0c6	-0.1492
21	0xb318	-0.2217
22	0xb4f8	-0.3105
23	0x26b5	0.0262

model/conv2d_10/Conv2D/ReadVariableOp f2 [16, 1, 1, 16]
0	0x3496	0.2866
1	0xb741	-0.4534
2	0x36d5	0.427
3	0x308d	0.1422
4	0xb86f	-0.554
5	0x3d8a	1.385
6	0xbd00	-1.25
7	0x2b45	0.0568
8	0x2c98	0.0718
9	0x3879	0.559
10	0xaeb5	-0.1048
11	0x35e1	0.3674
12	0xaee7	-0.10785
13	0xac94	-0.07153
14	0xab66	-0.0578
15	0x384d	0.5376
16	0xacc9	-0.07477
17	0x38d7	0.605
18	0x2ab6	0.05243
19	0xb2b4	-0.2095
20	0x3447	0.2673
21	0x37d3	0.489
22	0x3482	0.2817
23	0x2e56	0.099
24	0xbac8	-0.8477
25	0xbbce	-0.9756
26	0xaff5	-0.1243
27	0xbc35	-1.052
28	0x3243	0.1957
29	0x351a	0.3188
30	0x3530	0.3242
31	0x3070	0.1387
32	0x9fb8	-0.007538
33	0x3159	0.1671
34	0x3495	0.2864
35	0x36a7	0.4158
36	0x34b7	0.2947
37	0x3889	0.567
38	0x2d03	0.0783
39	0xb9f5	-0.7446
40	0xb821	-0.516
41	0xb1dc	-0.1831
42	0x2dbd	0.08966
43	0x207b	0.00875
44	0xb2e3	-0.2152
45	0xac57	-0.0678
46	0xb904	-0.627
47	0xb4ad	-0.2922
48	0x305c	0.1362
49	0x3a5b	0.7944
50	0x2992	0.04352
51	0x306e	0.1384
52	0xa976	-0.04266
53	0xb2cc	-0.2124
54	0x382a	0.5205
55	0x3639	0.389
56	0xb848	-0.535
57	0xbaad	-0.8345
58	0x35ad	0.3547
59	0x344e	0.269
60	0x3cdf	1.218
61	0xb08a	-0.1418
62	0x3942	0.657
63	0x327b	0.2025
64	0x3154	0.1665
65	0x3684	0.4072
66	0xac92	-0.0714
67	0xb7cd	-0.4875
68	0xbaba	-0.841
69	0xb917	-0.636
70	0xb002	-0.1252
71	0x3825	0.518
72	0x3adc	0.8574
73	0x347d	0.2805
74	0x38c2	0.5947
75	0x324a	0.1965
76	0xbc74	-1.113
77	0xb7d6	-0.4897
78	0xb050	-0.1348
79	0x2b6f	0.05807
80	0xb852	-0.54
81	0xb533	-0.325
82	0xb840	-0.5312
83	0x3213	0.1898
84	0x3481	0.2815
85	0xb284	-0.2036
86	0x2ce6	0.07654
87	0xb434	-0.2627
88	0x352e	0.3237
89	0xb73f	-0.453
90	0x370c	0.4404
91	0x392f	0.648
92	0x3a93	0.822
93	0x28f3	0.03867
94	0x3813	0.5093
95	0xb23f	-0.1952
96	0x34e9	0.307
97	0xa9fa	-0.0467
98	0x3a8d	0.819
99	0xb93d	-0.655
100	0x2f5a	0.11487
101	0x385e	0.546
102	0x3801	0.5005
103	0xb6b0	-0.418
104	0xb6d6	-0.4272
105	0x33b5	0.2408
106	0x3b54	0.916
107	0xba4b	-0.7866
108	0x3b27	0.894
109	0x3984	0.6895
110	0x35be	0.359
111	0x3950	0.664
112	0xb55f	-0.3357
113	0xb19f	-0.1757
114	0x3295	0.2057
115	0xb529	-0.3225
116	0x318c	0.1733
117	0x345a	0.272
118	0x319e	0.1755
119	0x22c3	0.01321
120	0xb6e3	-0.4304
121	0xb52f	-0.324
122	0x30b0	0.1465
123	0xba46	-0.784
124	0x34f7	0.3103
125	0x359c	0.3506
126	0x312d	0.1617
127	0x3a32	0.7744
128	0x25e9	0.02309
129	0xb9bb	-0.7163
130	0x2f3e	0.11316
131	0xb050	-0.1348
132	0x3030	0.1309
133	0xac4d	-0.0672
134	0xb172	-0.1702
135	0xb667	-0.4001
136	0x37c7	0.486
137	0x335b	0.2299
138	0xb21c	-0.1909
139	0xad45	-0.08234
140	0x30bf	0.1483
141	0xa9eb	-0.04623
142	0xb2a9	-0.2081
143	0x3130	0.1621
144	0x35c5	0.3606
145	0xa5b9	-0.02235
146	0xad16	-0.07947
147	0x3178	0.1709
148	0xb96c	-0.6777
149	0xb140	-0.1641
150	0xb99a	-0.7
151	0x35fd	0.3743
152	0x377b	0.4675
153	0x34b3	0.2937
154	0x37a4	0.4775
155	0x318a	0.1731
156	0xb9ce	-0.7256
157	0x374a	0.4556
158	0x34da	0.3032
159	0xb811	-0.5083
160	0xb343	-0.2269
161	0x2d15	0.0794
162	0xb876	-0.5576
163	0x387f	0.562
164	0xba16	-0.7607
165	0x2ba5	0.05972
166	0x305f	0.1366
167	0x3610	0.379
168	0x3923	0.642
169	0xa58e	-0.0217
170	0x3177	0.1708
171	0x36a8	0.416
172	0x2e6b	0.1003
173	0xb5c8	-0.3613
174	0xa6a7	-0.02599
175	0xb9b8	-0.715
176	0xb250	-0.1973
177	0x343b	0.2644
178	0xb7c0	-0.4844
179	0xb807	-0.5034
180	0x3635	0.388
181	0x38f8	0.621
182	0xba99	-0.8247
183	0xac87	-0.07074
184	0xb25c	-0.1987
185	0x30f9	0.1554
186	0x3039	0.132
187	0xba2d	-0.772
188	0xb243	-0.1957
189	0x319a	0.175
190	0x3a13	0.7593
191	0x3405	0.2512
192	0x38fb	0.6226
193	0xb8ab	-0.5835
194	0x368d	0.4094
195	0xbad3	-0.853
196	0x3296	0.2058
197	0x30cd	0.15
198	0x36ef	0.4333
199	0x3761	0.4612
200	0x31f9	0.1866
201	0xb854	-0.541
202	0x355b	0.3347
203	0x37fb	0.4988
204	0xb5f7	-0.3728
205	0xb12e	-0.1619
206	0x3766	0.4624
207	0x39e6	0.7373
208	0x30fc	0.1558
209	0xb35a	-0.2297
210	0x3530	0.3242
211	0x345f	0.2732
212	0x35c7	0.361
213	0x3a3e	0.7803
214	0xae14	-0.095
215	0xb767	-0.4626
216	0xaa85	-0.05093
217	0xb400	-0.25
218	0x3407	0.2517
219	0xba0c	-0.756
220	0xa965	-0.04214
221	0xb85b	-0.5444
222	0x30ed	0.1539
223	0x30ff	0.1561
224	0x2e11	0.0948
225	0x3a6b	0.8022
226	0x33ea	0.2473
227	0xbbdf	-0.984
228	0x3694	0.4111
229	0xb466	-0.275
230	0xb92e	-0.6475
231	0x3009	0.1261
232	0x3122	0.1604
233	0xb721	-0.4456
234	0x2eee	0.1083
235	0xb15c	-0.1675
236	0x3aff	0.8745
237	0x35ec	0.37
238	0x3602	0.3755
239	0xa470	-0.01733
240	0xb56f	-0.3396
241	0x2fe7	0.1235
242	0xb7dd	-0.4915
243	0xb569	-0.3381
244	0xb0b2	-0.1467
245	0x271c	0.02777
246	0xa9bb	-0.04477
247	0x343a	0.2642
248	0x326d	0.2008
249	0xb955	-0.6665
250	0x3890	0.5703
251	0xa6ca	-0.02652
252	0x3488	0.2832
253	0x2731	0.02809
254	0x38c3	0.595
255	0x323b	0.1947

model/conv2d_10/Conv2D_bias f2 [16]
0	0xa8f8	-0.03882
1	0xaf18	-0.11084
2	0xa86f	-0.03464
3	0xb338	-0.2256
4	0x2a92	0.05133
5	0xb0b2	-0.1467
6	0x1f49	0.007114
7	0xa48e	-0.01779
8	0x27ef	0.03099
9	0x31aa	0.177
10	0xaf19	-0.1109
11	0x2f23	0.1115
12	0xb068	-0.1377
13	0x2d29	0.0806
14	0xacf8	-0.07764
15	0xaa37	-0.04855

model/conv2d_11/Conv2D/ReadVariableOp f2 [16, 1, 1, 32]
0	0xb768	-0.463
1	0xb7c4	-0.4854
2	0xb900	-0.625
3	0xb0ac	-0.146
4	0x3c75	1.114
5	0xb8e4	-0.6113
6	0xb88b	-0.568
7	0xb581	-0.344
8	0xb6ef	-0.4333
9	0x358b	0.3464
10	0x3646	0.392
11	0x28b7	0.03683
12	0xb5c0	-0.3594
13	0xb824	-0.5176
14	0x3063	0.1371
15	0x36a2	0.4146
16	0x138c	0.0009212
17	0xaff0	-0.124
18	0x3280	0.2031
19	0xb88f	-0.57
20	0x39ef	0.7417
21	0xae02	-0.0939
22	0x360f	0.3787
23	0x2357	0.014336
24	0xb1e8	-0.1846
25	0x3716	0.4429
26	0x2c23	0.06464
27	0x3929	0.645
28	0x344c	0.2686
29	0x3627	0.3845
30	0xb099	-0.1437
31	0x2c9a	0.0719
32	0x27d2	0.03055
33	0x3133	0.1625
34	0xb244	-0.1958
35	0x2ce6	0.07654
36	0xaecb	-0.10614
37	0xb35c	-0.23
38	0xa80c	-0.03162
39	0xb5ad	-0.3547
40	0x21c4	0.01126
41	0x359d	0.3508
42	0xab71	-0.05814
43	0x319a	0.175
44	0x3123	0.1605
45	0xb012	-0.1272
46	0x1c51	0.004215
47	0xb315	-0.2213
48	0xb431	-0.262
49	0x32f5	0.2174
50	0xb360	-0.2305
51	0x327c	0.2026
52	0x28fb	0.0389
53	0xafd3	-0.12225
54	0xb5d8	-0.3652
55	0xadb0	-0.08887
56	0xacf4	-0.0774
57	0xb082	-0.1409
58	0x364e	0.394
59	0x3105	0.1569
60	0xb02b	-0.1302
61	0x2993	0.04355
62	0x24ee	0.01926
63	0x3148	0.165
64	0x362a	0.3853
65	0x34b6	0.2944
66	0xaada	-0.05353
67	0xb4a9	-0.2913
68	0xb3e4	-0.2466
69	0x2ca7	0.0727
70	0xb019	-0.128
71	0x3021	0.129
72	0x344f	0.2693
73	0x1972	0.002659
74	0xad3d	-0.08185
75	0x35e3	0.368
76	0x32eb	0.2162
77	0xa2d2	-0.01332
78	0xacd9	-0.07574
79	0xae1f	-0.09564
80	0x30a8	0.1455
81	0xac7a	-0.06995
82	0xad9c	-0.08765
83	0xb861	-0.5474
84	0xb4f6	-0.31
85	0x362a	0.3853
86	0xb029	-0.13
87	0xb1e7	-0.1844
88	0xb4b9	-0.2952
89	0xb359	-0.2296
90	0xae1c	-0.09546
91	0xb36c	-0.2319
92	0x3354	0.229
93	0xb052	-0.135
94	0xb445	-0.2668
95	0x3564	0.337
96	0x3248	0.1963
97	0xaece	-0.1063
98	0xaca5	-0.0726
99	0xb801	-0.5005
100	0x310e	0.158
101	0xb211	-0.1896
102	0xb445	-0.2668
103	0xada8	-0.0884
104	0xb601	-0.3752
105	0x2d69	0.08453
106	0x349d	0.2883
107	0x3449	0.2678
108	0x3066	0.1375
109	0x206c	0.00864
110	0xa060	-0.008545
111	0x25fd	0.02339
112	0xb39e	-0.238
113	0xb8d0	-0.6016
114	0xa148	-0.010315
115	0x2d2e	0.08093
116	0x31ff	0.1874
117	0xb20c	-0.189
118	0x3024	0.1294
119	0x380a	0.505
120	0xb0d6	-0.1511
121	0x28bf	0.03708
122	0xb5b3	-0.3562
123	0x2061	0.00855
124	0x2d40	0.08203
125	0xb0d9	-0.1515
126	0x329f	0.2069
127	0xb458	-0.2715
128	0xa749	-0.02846
129	0x234a	0.01424
130	0xb753	-0.4578
131	0x30d9	0.1515
132	0xab71	-0.05814
133	0xab24	-0.0558
134	0xaa7e	-0.05072
135	0xb2fe	-0.2185
136	0x2f53	0.11444
137	0xb4ec	-0.3076
138	0x3383	0.2347
139	0xb527	-0.322
140	0x3324	0.2231
141	0x3322	0.2229
142	0xb180	-0.1719
143	0x2365	0.01444
144	0xb43f	-0.2654
145	0x3485	0.2825
146	0xb409	-0.2522
147	0x356f	0.3396
148	0x2422	0.01614
149	0x29ae	0.04437
150	0xb0e1	-0.1525
151	0xa1f1	-0.011604
152	0x3395	0.2369
153	0xb425	-0.259
154	0xace8	-0.07666
155	0xb69c	-0.413
156	0xb374	-0.2329
157	0x2b36	0.05634
158	0x3103	0.1566
159	0xacc7	-0.07465
160	0xb934	-0.6504
161	0xb8e1	-0.61
162	0xb665	-0.3997
163	0xb499	-0.2874
164	0x32aa	0.2083
165	0x3623	0.3835
166	0xb4c4	-0.2979
167	0xb49a	-0.2876
168	0x38bf	0.5933
169	0x3870	0.5547
170	0x2548	0.02063
171	0xb90f	-0.6323
172	0x34e2	0.3052
173	0xb642	-0.391
174	0x3457	0.2712
175	0x361a	0.3813
176	0x32f4	0.2173
177	0xb573	-0.3406
178	0xb55a	-0.3345
179	0x3875	0.557
180	0x353e	0.3276
181	0x36bd	0.4211
182	0xb734	-0.4502
183	0xb0d4	-0.1509
184	0x393b	0.654
185	0x37fd	0.4993
186	0xb20e	-0.1892
187	0x9b07	-0.003431
188	0xa69c	-0.02582
189	0xb393	-0.2367
190	0xaaa8	-0.052
191	0xb4dd	-0.304
192	0xb449	-0.2678
193	0x3275	0.2018
194	0xb273	-0.2015
195	0xb260	-0.1992
196	0x378b	0.4714
197	0xb43a	-0.2642
198	0x2b60	0.05762
199	0xa847	-0.03342
200	0xb815	-0.5103
201	0xb49c	-0.288
202	0x34b1	0.2932
203	0xab1d	-0.05557
204	0xb6ed	-0.4329
205	0x2c27	0.0649
206	0x339d	0.2379
207	0x3440	0.2656
208	0xa8eb	-0.03842
209	0x3824	0.5176
210	0xb5bb	-0.3582
211	0xae82	-0.1017
212	0x2dcb	0.0905
213	0xaf4f	-0.1142
214	0xad94	-0.08716
215	0xb393	-0.2367
216	0x3460	0.2734
217	0x1f89	0.00736
218	0xb421	-0.258
219	0x3126	0.1609
220	0xb0d8	-0.1514
221	0xa9e8	-0.04614
222	0xb038	-0.1318
223	0x3534	0.3252
224	0xb20a	-0.1887
225	0x2ecc	0.1062
226	0x34cb	0.2996
227	0x318f	0.1737
228	0xb94f	-0.6636
229	0xab94	-0.0592
230	0x2809	0.03152
231	0x381c	0.5137
232	0x2ba9	0.05984
233	0xad9a	-0.0875
234	0xb961	-0.6724
235	0xacb4	-0.0735
236	0x30e0	0.1523
237	0x34d2	0.3013
238	0x2d68	0.0845
239	0xa873	-0.03476
240	0x33cd	0.2438
241	0x3409	0.2522
242	0xad5a	-0.0836
243	0xaa25	-0.048
244	0x387d	0.561
245	0xae95	-0.10284
246	0xb496	-0.2866
247	0xb09f	-0.1444
248	0x3209	0.1886
249	0x2fac	0.1199
250	0xa11f	-0.01
251	0x2de1	0.09186
252	0x0c19	0.00025
253	0xb268	-0.2002
254	0x3426	0.2593
255	0x3160	0.168

model/conv2d_11/Conv2D_bias f2 [16]
0	0x22c4	0.013214
1	0x0000	0.0
2	0xa117	-0.00994
3	0xaaa3	-0.05185
4	0x0000	0.0
5	0x2671	0.02516
6	0xa5c5	-0.02254
7	0x2aa4	0.05188
8	0x2bc1	0.06058
9	0xa5aa	-0.02213
10	0xa44b	-0.01677
11	0xb26f	-0.201
12	0x280b	0.0316
13	0xb03e	-0.1326
14	0xad55	-0.0833
15	0xac8d	-0.0711

model/conv2d_12/Conv2D/ReadVariableOp f2 [16, 1, 1, 16]
0	0x33e8	0.2471
1	0x362b	0.3855
2	0x31a4	0.1763
3	0x2de1	0.09186
4	0xb4b5	-0.2942
5	0x3632	0.3872
6	0xb456	-0.271
7	0xb355	-0.2291
8	0x2820	0.03223
9	0x310f	0.1581
10	0xadf7	-0.0932
11	0x278f	0.02953
12	0xb657	-0.3962
13	0x32b4	0.2095
14	0x2ef5	0.1087
15	0xb1d2	-0.1819
16	0x2c38	0.0659
17	0xb5c1	-0.3596
18	0xb3c6	-0.2429
19	0x3441	0.2659
20	0xb125	-0.1608
21	0x389a	0.575
22	0x2e11	0.0948
23	0x3623	0.3835
24	0x3878	0.5586
25	0x30fa	0.1555
26	0xb25b	-0.1986
27	0xb485	-0.2825
28	0xaffe	-0.1249
29	0xb904	-0.627
30	0xb551	-0.3323
31	0xb595	-0.3489
32	0x3576	0.3413
33	0xa434	-0.01642
34	0x300b	0.1263
35	0x2c9d	0.0721
36	0xae50	-0.09863
37	0x3477	0.279
38	0x2b8b	0.05893
39	0x2d28	0.08057
40	0x392a	0.6455
41	0xb5cd	-0.3625
42	0xb5d0	-0.3633
43	0x34ec	0.3076
44	0x38e1	0.61
45	0x3714	0.4424
46	0x3a0d	0.7563
47	0xacc5	-0.0745
48	0xb4db	-0.3035
49	0xb30e	-0.2205
50	0x3594	0.3486
51	0xb50c	-0.3154
52	0x30ae	0.1462
53	0x3733	0.45
54	0x320a	0.1887
55	0xb5c4	-0.3604
56	0xb57c	-0.3428
57	0xb319	-0.2218
58	0xb4f9	-0.3108
59	0x30ce	0.1501
60	0xa0ec	-0.00961
61	0xb2f9	-0.2179
62	0xb000	-0.125
63	0xb1a6	-0.1765
64	0x348d	0.2844
65	0xb04f	-0.1346
66	0x2f06	0.10974
67	0x3414	0.255
68	0xae50	-0.09863
69	0xb967	-0.6753
70	0x33a4	0.2388
71	0xb799	-0.4749
72	0x344a	0.268
73	0xb6c4	-0.4229
74	0x31e6	0.1843
75	0xaf74	-0.11646
76	0x3972	0.6807
77	0xa851	-0.03372
78	0x35d1	0.3635
79	0xb62a	-0.3853
80	0xb90e	-0.632
81	0x3593	0.3484
82	0x2fb8	0.1206
83	0x30dd	0.152
84	0xb095	-0.1432
85	0xb0ce	-0.1501
86	0xb35e	-0.2302
87	0xb60a	-0.3774
88	0xbae8	-0.8633
89	0x2c20	0.06445
90	0xb6ca	-0.4243
91	0xb8c2	-0.5947
92	0xbaeb	-0.8647
93	0xb3e8	-0.2471
94	0xb8ce	-0.6006
95	0x2dbd	0.08966
96	0x3034	0.1313
97	0x360d	0.3782
98	0x1d9f	0.00549
99	0x3482	0.2817
100	0xb647	-0.3923
101	0x3841	0.5317
102	0xa9bd	-0.04483
103	0x3841	0.5317
104	0x357f	0.3435
105	0xaadc	-0.0536
106	0xaf28	-0.1118
107	0x26df	0.02684
108	0x3aba	0.841
109	0x35de	0.3667
110	0x35dc	0.3662
111	0x34d5	0.302
112	0x368a	0.4087
113	0xac18	-0.06396
114	0xb27b	-0.2025
115	0xaf79	-0.11676
116	0x33b8	0.2412
117	0xa25b	-0.01241
118	0x2f36	0.1127
119	0xb404	-0.251
120	0x35b1	0.3557
121	0xb224	-0.1919
122	0xb4d2	-0.3013
123	0xb2c2	-0.2112
124	0x3932	0.6494
125	0xb2a3	-0.2074
126	0xb42d	-0.261
127	0x183d	0.00207
128	0x2849	0.03348
129	0x2704	0.0274
130	0xa873	-0.03476
131	0x35e0	0.3672
132	0x2c44	0.06665
133	0x3488	0.2832
134	0x35b6	0.357
135	0x3b92	0.9463
136	0x3b72	0.9307
137	0x30da	0.1516
138	0xb44f	-0.2693
139	0x3549	0.3303
140	0x3645	0.3918
141	0x392a	0.6455
142	0x3613	0.3796
143	0xae05	-0.09406
144	0x2cd4	0.07544
145	0x34b2	0.2935
146	0xaa20	-0.04785
147	0x37c6	0.4858
148	0x348b	0.284
149	0xb01d	-0.1285
150	0x2ca0	0.07227
151	0xb3d1	-0.2443
152	0xb048	-0.1338
153	0xb6b3	-0.4187
154	0xa844	-0.03333
155	0x3052	0.135
156	0xb73f	-0.453
157	0x32ac	0.2085
158	0xb0fb	-0.1556
159	0x34b8	0.295
160	0xa618	-0.0238
161	0x33ca	0.2434
162	0xb641	-0.3909
163	0xb089	-0.1417
164	0xb379	-0.2335
165	0xb627	-0.3845
166	0x9eb2	-0.00654
167	0x2884	0.03528
168	0x16f2	0.001696
169	0x336f	0.2323
170	0x2c94	0.07153
171	0xb63d	-0.39
172	0xb508	-0.3145
173	0x34e0	0.3047
174	0xb913	-0.6343
175	0x3038	0.1318
176	0xb9e2	-0.7354
177	0xb5af	-0.3552
178	0x34cf	0.3005
179	0x3609	0.3772
180	0x2904	0.03918
181	0xb89f	-0.5776
182	0xa91e	-0.03998
183	0xb321	-0.2228
184	0xb925	-0.643
185	0xa85e	-0.03412
186	0x35e4	0.3682
187	0xb171	-0.17
188	0xb16d	-0.1696
189	0xb926	-0.6436
190	0xa393	-0.01479
191	0x359c	0.3506
192	0xbb89	-0.942
193	0xb63f	-0.3904
194	0x35d8	0.3652
195	0x3014	0.1274
196	0x35cc	0.3623
197	0xb2bc	-0.2104
198	0x263e	0.02438
199	0x3208	0.1885
200	0xb889	-0.567
201	0xb590	-0.3477
202	0x3750	0.457
203	0x376f	0.4646
204	0x3609	0.3772
205	0x3307	0.2196
206	0x3205	0.1881
207	0x2b4c	0.057
208	0x36ec	0.4326
209	0x3498	0.287
210	0xb6d6	-0.4272
211	0x33cd	0.2438
212	0x3573	0.3406
213	0xb319	-0.2218
214	0xa4d7	-0.0189
215	0xb0fc	-0.1558
216	0x3775	0.466
217	0xb58a	-0.3462
218	0x350b	0.3152
219	0xb5e1	-0.3674
220	0xb6b3	-0.4187
221	0xae42	-0.0978
222	0xb68d	-0.4094
223	0xb2d3	-0.2133
224	0xb313	-0.2211
225	0xae15	-0.09503
226	0x3476	0.2788
227	0xb052	-0.135
228	0xb2eb	-0.2162
229	0x2373	0.01455
230	0x3628	0.3848
231	0x3130	0.1621
232	0x3555	0.3333
233	0xb160	-0.168
234	0x3228	0.1924
235	0x2330	0.01404
236	0x32aa	0.2083
237	0xb216	-0.1902
238	0x335e	0.2302
239	0x3250	0.1973
240	0x321d	0.191
241	0xb33b	-0.226
242	0xa8ab	-0.03647
243	0x3377	0.2333
244	0xb692	-0.4106
245	0xa9bc	-0.0448
246	0x33b9	0.2413
247	0x320c	0.189
248	0x31a8	0.1768
249	0x35e8	0.3691
250	0x2c69	0.0689
251	0xb9f1	-0.7427
252	0x3081	0.1407
253	0x1940	0.002563
254	0x307f	0.1405
255	0xb4f1	-0.3088

model/conv2d_12/Conv2D_bias f2 [16]
0	0xab2f	-0.05612
1	0xb399	-0.2374
2	0x36b1	0.4182
3	0xb1d3	-0.182
4	0x2d9a	0.0875
5	0xb71a	-0.4438
6	0x3657	0.3962
7	0x3212	0.1897
8	0x3842	0.532
9	0xb15a	-0.1672
10	0x31fb	0.1869
11	0xb1d2	-0.1819
12	0x2e6b	0.1003
13	0x3079	0.1398
14	0x2f32	0.1124
15	0x34ed	0.3079

model/conv2d_13/Conv2D/ReadVariableOp f2 [16, 1, 1, 16]
0	0x1bd5	0.003824
1	0x2fcd	0.1219
2	0xa6a3	-0.02592
3	0xa2a6	-0.012985
4	0x291a	0.03986
5	0xa5ea	-0.0231
6	0xac40	-0.0664
7	0x241a	0.01602
8	0x01fd	3.034e-05
9	0xad2a	-0.0807
10	0xae79	-0.10114
11	0xa4b4	-0.01837
12	0x2338	0.0141
13	0x2b35	0.0563
14	0x25fc	0.02338
15	0x2b53	0.05722
16	0x2854	0.0338
17	0xb2b8	-0.21
18	0x2f90	0.11816
19	0xa9b3	-0.04453
20	0xac08	-0.063
21	0xaa12	-0.04742
22	0xb0c2	-0.1487
23	0x3191	0.174
24	0xa551	-0.02077
25	0x3097	0.1434
26	0x2e2f	0.0966
27	0xadf4	-0.093
28	0xaaa2	-0.05182
29	0x2f2a	0.11194
30	0x2ceb	0.07684
31	0xad1a	-0.0797
32	0x2bce	0.06097
33	0x32dd	0.2145
34	0x2f6c	0.11597
35	0x35a5	0.3528
36	0xa20e	-0.011826
37	0x2d22	0.0802
38	0x1cf5	0.00484
39	0x2a36	0.04852
40	0x2c9a	0.0719
41	0xabdd	-0.06143
42	0x2d2b	0.08075
43	0x3402	0.2505
44	0xb198	-0.1748
45	0x29df	0.04587
46	0xafe2	-0.12317
47	0x24e6	0.01913
48	0x2cec	0.0769
49	0x2d7a	0.0856
50	0x2852	0.03375
51	0x32f5	0.2174
52	0x32e5	0.2155
53	0x3027	0.1298
54	0xb3aa	-0.2395
55	0x3599	0.3499
56	0xabe7	-0.06174
57	0xb056	-0.1355
58	0x2d73	0.08514
59	0x34ec	0.3076
60	0xa952	-0.04156
61	0x311b	0.1595
62	0x3288	0.2041
63	0xb8a5	-0.5806
64	0x2999	0.04373
65	0x3077	0.1395
66	0x2d72	0.0851
67	0xb47d	-0.2805
68	0x2b69	0.0579
69	0xad65	-0.0843
70	0x9512	-0.001238
71	0x281a	0.03204
72	0x26b0	0.02612
73	0xa157	-0.01043
74	0xa9c4	-0.04504
75	0x2a42	0.0489
76	0xb08f	-0.1425
77	0xad6b	-0.08466
78	0xae50	-0.09863
79	0xaef0	-0.1084
80	0x2f89	0.11774
81	0x392d	0.647
82	0xa1f6	-0.01164
83	0x28e5	0.03824
84	0x314b	0.1654
85	0x2c54	0.0676
86	0xb5c7	-0.361
87	0x32ac	0.2085
88	0xadfe	-0.0936
89	0x35af	0.3552
90	0xaea5	-0.1038
91	0xae17	-0.09515
92	0xaf15	-0.11066
93	0x3435	0.263
94	0x348f	0.285
95	0xb09b	-0.1439
96	0xb05c	-0.1362
97	0x27e5	0.03084
98	0xaf72	-0.11633
99	0x2d9c	0.08765
100	0x2e21	0.09576
101	0x2a06	0.04706
102	0x24e7	0.01915
103	0x314b	0.1654
104	0x2972	0.04254
105	0x246c	0.01727
106	0xb073	-0.139
107	0xb03a	-0.1321
108	0xa0a9	-0.0091
109	0xad3e	-0.0819
110	0xad51	-0.08307
111	0xad76	-0.0853
112	0x26f2	0.02713
113	0xb1a0	-0.1758
114	0x2c9c	0.072
115	0x9f68	-0.007233
116	0x9ede	-0.006706
117	0x1e3c	0.00609
118	0xb02e	-0.1306
119	0x3041	0.1329
120	0x22cc	0.013275
121	0x8dd3	-0.0003555
122	0x2b8c	0.05896
123	0xac6b	-0.06903
124	0xaa71	-0.05032
125	0x2f2c	0.11206
126	0xa7a2	-0.02982
127	0xac98	-0.0718
128	0xb46b	-0.2761
129	0xae37	-0.0971
130	0x2d11	0.07916
131	0x2d81	0.086
132	0x3280	0.2031
133	0x314c	0.1655
134	0x30e1	0.1525
135	0x28f0	0.03857
136	0x9536	-0.001272
137	0x9744	-0.001774
138	0xac94	-0.07153
139	0xb2a0	-0.207
140	0xb101	-0.1564
141	0x282f	0.03268
142	0xa406	-0.01572
143	0xa750	-0.02856
144	0xafde	-0.1229
145	0x2ddd	0.0916
146	0xa512	-0.0198
147	0x319b	0.1752
148	0xa647	-0.02452
149	0x2d6a	0.0846
150	0xa4fa	-0.01944
151	0x3457	0.2712
152	0xa47d	-0.01753
153	0xa949	-0.0413
154	0xaf8c	-0.1179
155	0xa5ed	-0.02315
156	0xb084	-0.1411
157	0xb09d	-0.1442
158	0x2832	0.03278
159	0xb03c	-0.1323
160	0x2113	0.00991
161	0x2b19	0.05545
162	0xb7e2	-0.4927
163	0xa897	-0.03586
164	0xb4f1	-0.3088
165	0xb5a7	-0.3533
166	0xb23a	-0.1946
167	0xa821	-0.03226
168	0xad22	-0.0802
169	0xb19b	-0.1752
170	0xa79f	-0.02977
171	0x2b3a	0.05646
172	0xb120	-0.1602
173	0x3056	0.1355
174	0x309f	0.1444
175	0x99f8	-0.002914
176	0x9e19	-0.005955
177	0xac79	-0.0699
178	0xab41	-0.05667
179	0xadb0	-0.08887
180	0x2d0a	0.07874
181	0xa8f1	-0.0386
182	0xb0f6	-0.155
183	0x3395	0.2369
184	0x2ba3	0.05966
185	0x307a	0.1399
186	0xa434	-0.01642
187	0xb2d9	-0.214
188	0xb299	-0.2062
189	0x3350	0.2285
190	0xb015	-0.1276
191	0xaf70	-0.1162
192	0xad95	-0.0872
193	0x2f29	0.1119
194	0xb088	-0.1416
195	0xb00f	-0.1268
196	0x2577	0.02135
197	0xb829	-0.52
198	0xb693	-0.411
199	0x3592	0.3481
200	0x3264	0.1997
201	0x33ad	0.2399
202	0xa5ab	-0.02214
203	0x35d5	0.3645
204	0xa0c5	-0.009315
205	0xaa2f	-0.0483
206	0xb476	-0.2788
207	0xa915	-0.0397
208	0xacfc	-0.0779
209	0x3255	0.1979
210	0x967f	-0.001586
211	0x3402	0.2505
212	0x2ce8	0.07666
213	0x2f9c	0.1189
214	0xa866	-0.03436
215	0x2ff5	0.1243
216	0xa504	-0.01959
217	0xafd8	-0.12256
218	0x331d	0.2223
219	0xb074	-0.1392
220	0xb0c7	-0.1493
221	0x31b9	0.1788
222	0x2ad3	0.0533
223	0xaf44	-0.1135
224	0x25c2	0.02249
225	0x2e86	0.1019
226	0xaa0f	-0.04733
227	0xac2a	-0.06506
228	0x9e5f	-0.00622
229	0x2e46	0.098
230	0xae70	-0.1006
231	0x308b	0.142
232	0xac35	-0.06573
233	0x24dd	0.019
234	0x2977	0.0427
235	0x2b1f	0.05563
236	0xa07f	-0.00878
237	0x257c	0.02142
238	0x3221	0.1915
239	0xb4d3	-0.3015
240	0x2d63	0.08417
241	0x2550	0.02075
242	0x2c3a	0.06604
243	0xac3d	-0.0662
244	0x28f7	0.0388
245	0xa63b	-0.02434
246	0xae11	-0.0948
247	0x2690	0.02563
248	0x2642	0.02444
249	0xaf18	-0.11084
250	0x1a27	0.003004
251	0x2433	0.0164
252	0xb0da	-0.1516
253	0xacb6	-0.0736
254	0xa68f	-0.02562
255	0xad2a	-0.0807

model/conv2d_13/Conv2D_bias f2 [16]
0	0x3cc2	1.189
1	0xbeb6	-1.678
2	0xc131	-2.596
3	0xbce1	-1.22
4	0x30c8	0.1494
5	0x3b82	0.9385
6	0x4044	2.133
7	0xb890	-0.5703
8	0xb886	-0.5654
9	0x32c8	0.2119
10	0x4929	10.32
11	0x40c4	2.383
12	0x4514	5.08
13	0x3374	0.2329
14	0x3996	0.698
15	0xb10e	-0.158

model/conv2d_14/Conv2D/ReadVariableOp f2 [1, 1, 1, 16]
0	0x398a	0.6924
1	0xb896	-0.573
2	0x34b5	0.2942
3	0x3803	0.5015
4	0xb9ca	-0.7236
5	0x3861	0.5474
6	0x3699	0.4124
7	0xb75b	-0.4597
8	0x3883	0.564
9	0x3629	0.385
10	0x3cb1	1.173
11	0xb956	-0.667
12	0xb7dc	-0.4912
13	0x36ad	0.4172
14	0x3980	0.6875
15	0xb500	-0.3125

model/conv2d_2/Conv2D/ReadVariableOp f2 [24, 1, 1, 24]
0	0xb905	-0.6274
1	0x2c6e	0.0692
2	0xb0b0	-0.1465
3	0x9ad5	-0.003336
4	0xa49f	-0.01805
5	0x2e56	0.099
6	0xac21	-0.0645
7	0x2413	0.01591
8	0x207f	0.00878
9	0x255f	0.02098
10	0xade4	-0.09204
11	0xb1f4	-0.186
12	0x2da0	0.0879
13	0xb215	-0.1901
14	0xac3e	-0.0663
15	0x30d9	0.1515
16	0xae79	-0.10114
17	0xad0a	-0.07874
18	0xac26	-0.0648
19	0x2039	0.00825
20	0xb5e2	-0.3677
21	0x255d	0.02095
22	0x2592	0.02176
23	0x1b82	0.003666
24	0x10ae	0.0005713
25	0xb8a2	-0.579
26	0xb367	-0.2313
27	0xb185	-0.1725
28	0xb41e	-0.2573
29	0xb241	-0.1954
30	0x2295	0.012856
31	0xa7ed	-0.03096
32	0xae99	-0.1031
33	0xb203	-0.1879
34	0xb539	-0.3264
35	0xafc2	-0.1212
36	0x3133	0.1625
37	0xb458	-0.2715
38	0xac21	-0.0645
39	0xb696	-0.4116
40	0x19eb	0.00289
41	0x3301	0.2189
42	0xa9fa	-0.0467
43	0x340d	0.2532
44	0xb04d	-0.1344
45	0x2e6c	0.10034
46	0x1af1	0.00339
47	0x2f73	0.1164
48	0xaa1c	-0.04773
49	0xae98	-0.103
50	0xb6df	-0.4294
51	0xb60c	-0.378
52	0xaf67	-0.11566
53	0xa2f6	-0.013596
54	0xb99b	-0.7007
55	0xafd7	-0.1225
56	0x2b66	0.0578
57	0x31a3	0.1761
58	0xb5e1	-0.3674
59	0xb72c	-0.4482
60	0xad6a	-0.0846
61	0x2a29	0.04813
62	0xb761	-0.4612
63	0xb640	-0.3906
64	0xb5ac	-0.3545
65	0xb0e6	-0.1531
66	0xae93	-0.1027
67	0xb3d6	-0.2449
68	0x2508	0.01965
69	0xb4cc	-0.2998
70	0x331a	0.2219
71	0xb407	-0.2517
72	0xa66e	-0.02512
73	0x2984	0.0431
74	0x1729	0.001748
75	0x2fb4	0.12036
76	0xa33a	-0.014114
77	0x2e37	0.0971
78	0xb22b	-0.1927
79	0x2643	0.02446
80	0x28c0	0.0371
81	0x2eca	0.1061
82	0xa846	-0.0334
83	0xa026	-0.0081
84	0xa637	-0.02428
85	0x29cb	0.04526
86	0xb455	-0.2708
87	0x29bb	0.04477
88	0x24b2	0.01834
89	0xa608	-0.02356
90	0x2889	0.03543
91	0x3043	0.1332
92	0x3135	0.1627
93	0xa9e5	-0.04605
94	0x22f4	0.01358
95	0xab8d	-0.059
96	0x282a	0.03253
97	0x2442	0.01663
98	0xa0a9	-0.0091
99	0xac99	-0.07184
100	0x2d01	0.0782
101	0xac67	-0.0688
102	0x2b43	0.05673
103	0xa6c8	-0.02649
104	0x99ba	-0.002796
105	0x2d1f	0.08
106	0xac44	-0.06665
107	0x2f9f	0.1191
108	0x2ab0	0.05225
109	0xa914	-0.03967
110	0x2b0b	0.05502
111	0xb092	-0.1428
112	0x2820	0.03223
113	0x26ce	0.02658
114	0xac58	-0.0679
115	0xadb1	-0.0889
116	0x2919	0.03983
117	0xa8e4	-0.0382
118	0xae71	-0.10065
119	0x32ec	0.2163
120	0xa8ab	-0.03647
121	0x2e12	0.09485
122	0x207e	0.00877
123	0x226d	0.01255
124	0x1c34	0.004105
125	0x2e4c	0.0984
126	0xafb7	-0.12054
127	0x2df2	0.0929
128	0x28e2	0.03815
129	0x3487	0.283
130	0x2baf	0.06003
131	0xadbc	-0.0896
132	0x2dac	0.0886
133	0xa074	-0.0087
134	0xb3e8	-0.2471
135	0xa5cb	-0.02263
136	0xa80e	-0.03168
137	0xa4d2	-0.01883
138	0xad53	-0.0832
139	0xa80d	-0.03165
140	0xab51	-0.05716
141	0xa50d	-0.01973
142	0x3093	0.143
143	0x2f14	0.1106
144	0x3436	0.2632
145	0xb220	-0.1914
146	0xa95f	-0.04196
147	0xa6af	-0.02611
148	0x2849	0.03348
149	0xa428	-0.01624
150	0xadb5	-0.0892
151	0xafd0	-0.1221
152	0xacc2	-0.07434
153	0x2f54	0.1145
154	0x2c93	0.0715
155	0x34e6	0.3062
156	0x2e4e	0.0985
157	0x24b8	0.01843
158	0x2e86	0.1019
159	0x30e0	0.1523
160	0x2b8d	0.059
161	0xab8d	-0.059
162	0x30c7	0.1493
163	0xaabd	-0.05264
164	0x3467	0.2751
165	0x3306	0.2195
166	0xb1e9	-0.1847
167	0x30c6	0.1492
168	0x24fb	0.01945
169	0xaf36	-0.1127
170	0xab3b	-0.0565
171	0x9d99	-0.005466
172	0xa6b0	-0.02612
173	0xaee8	-0.1079
174	0xae9d	-0.10333
175	0x241e	0.01608
176	0xa4c1	-0.01857
177	0x2412	0.0159
178	0xaebf	-0.1054
179	0x300a	0.1262
180	0xacc2	-0.07434
181	0xa517	-0.01988
182	0x249b	0.01799
183	0xacc6	-0.0746
184	0xaa36	-0.04852
185	0xa331	-0.014046
186	0x209e	0.00902
187	0x9ff6	-0.007774
188	0x2d72	0.0851
189	0x284f	0.03366
190	0xac27	-0.0649
191	0x2625	0.024
192	0x300f	0.1268
193	0xadd0	-0.0908
194	0xad4c	-0.08276
195	0x3271	0.2013
196	0xb30a	-0.22
197	0xb1e9	-0.1847
198	0xb3d9	-0.2452
199	0xb3ec	-0.2476
200	0x29d7	0.04562
201	0xb3ea	-0.2473
202	0xb15e	-0.1677
203	0xb464	-0.2744
204	0x36b0	0.418
205	0xa96b	-0.04233
206	0xac76	-0.0697
207	0xb260	-0.1992
208	0x2bf0	0.062
209	0xaa72	-0.05035
210	0xb453	-0.2703
211	0xaeef	-0.10834
212	0xb92c	-0.6465
213	0xae7e	-0.10144
214	0xb74c	-0.456
215	0xb13d	-0.1637
216	0xb0ac	-0.146
217	0xb0ab	-0.1459
218	0x2e9c	0.1033
219	0xaab0	-0.05225
220	0x2422	0.01614
221	0x3283	0.2035
222	0xb166	-0.1687
223	0x31dd	0.1832
224	0x2e50	0.09863
225	0xa8c6	-0.0373
226	0x22c1	0.01319
227	0x3712	0.442
228	0x300c	0.1265
229	0x2cec	0.0769
230	0xa755	-0.02864
231	0x32f7	0.2177
232	0x3512	0.317
233	0x2eac	0.10425
234	0xa670	-0.02515
235	0x26ab	0.02605
236	0x3168	0.169
237	0x3715	0.4426
238	0x2e14	0.095
239	0x2dee	0.09265
240	0x2dcf	0.09076
241	0x3136	0.1628
242	0xb0b4	-0.147
243	0xb695	-0.4114
244	0xb1b9	-0.1788
245	0x2b6d	0.058
246	0x1b62	0.003605
247	0xb26b	-0.2006
248	0xaff3	-0.1242
249	0xa284	-0.012726
250	0xb21a	-0.1907
251	0x22d5	0.01334
252	0xae99	-0.1031
253	0x26d3	0.02666
254	0x2d51	0.08307
255	0xb3c0	-0.2422

model/conv2d_2/Conv2D_bias f2 [24]
0	0xb93e	-0.6553
1	0xb076	-0.1394
2	0xb4c5	-0.298
3	0x3765	0.4622
4	0x310d	0.1578
5	0x3613	0.3796
6	0x3746	0.4546
7	0xb93a	-0.6533
8	0xb863	-0.5483
9	0x2800	0.03125
10	0xb454	-0.2705
11	0xb57c	-0.3428
12	0xb0c7	-0.1493
13	0x3933	0.65
14	0xb46c	-0.2764
15	0xb67d	-0.4055
16	0xb5a6	-0.353
17	0x1939	0.00255
18	0x1da6	0.005516
19	0xb960	-0.672
20	0xb498	-0.287
21	0xb46a	-0.276
22	0xa8d2	-0.03766
23	0x37f1	0.4963

model/conv2d_3/Conv2D/ReadVariableOp f2 [1, 3, 3, 8]
0	0xc3bc	-3.867
1	0xb4d9	-0.303
2	0x3865	0.5493
3	0xc832	-8.39
4	0xbb6a	-0.927
5	0x460a	6.04
6	0x3825	0.518
7	0x469e	6.617
8	0xc1e9	-2.955
9	0x385a	0.544
10	0x4613	6.074
11	0x3a24	0.7676
12	0xc4c5	-4.77
13	0xb497	-0.2869
14	0xbcd3	-1.206
15	0xc11f	-2.56
16	0xc1d0	-2.906
17	0xc6cd	-6.8
18	0x3dc3	1.44
19	0xc4e3	-4.887
20	0xbce6	-1.225
21	0x45f1	5.94
22	0x3f88	1.883
23	0x46f4	6.953
24	0xc24d	-3.15
25	0x3ab3	0.8374
26	0xba0c	-0.756
27	0x430b	3.521
28	0x4287	3.264
29	0x3cfa	1.244
30	0xc287	-3.264
31	0xc592	-5.57
32	0x484c	8.59
33	0x49ee	11.86
34	0x415c	2.68
35	0x4c7b	17.92
36	0x440a	4.04
37	0xcb8e	-15.11
38	0x4932	10.39
39	0xcb8c	-15.09
40	0x44d8	4.844
41	0xbf97	-1.897
42	0xbf84	-1.879
43	0x4034	2.102
44	0x41b8	2.86
45	0xc1fc	-2.992
46	0xb605	-0.3762
47	0xc1ed	-2.963
48	0xc28a	-3.27
49	0x3459	0.2717
50	0x3d1d	1.278
51	0xc7ea	-7.914
52	0x3d33	1.3
53	0x49ae	11.36
54	0xaf1b	-0.111
55	0x448a	4.54
56	0x43ef	3.967
57	0x4063	2.193
58	0xbe36	-1.553
59	0x3d53	1.331
60	0xbeb3	-1.675
61	0xc498	-4.594
62	0xc01c	-2.055
63	0xc609	-6.035
64	0x34ae	0.2925
65	0xc486	-4.523
66	0xc096	-2.293
67	0xc6b8	-6.72
68	0x3f40	1.8125
69	0xc2df	-3.436
70	0xbbd7	-0.98
71	0x4b23	14.27

model/conv2d_3/Conv2D_bias f2 [8]
0	0x301b	0.1283
1	0x29b1	0.04446
2	0xbaae	-0.835
3	0xaf76	-0.1166
4	0x35d4	0.3643
5	0x9c4a	-0.00419
6	0x4488	4.53
7	0xb8b4	-0.588

model/conv2d_4/Conv2D/ReadVariableOp f2 [32, 1, 1, 32]
0	0xa690	-0.02563
1	0x9e31	-0.006046
2	0xa34c	-0.01425
3	0xa382	-0.01466
4	0xa5ed	-0.02315
5	0x1cc3	0.00465
6	0xa4dd	-0.019
7	0x2d35	0.08136
8	0x171f	0.001739
9	0x9e8c	-0.006393
10	0x02e2	4.4e-05
11	0x1a1e	0.002987
12	0x9af7	-0.0034
13	0x9344	-0.000887
14	0x117d	0.00067
15	0x937d	-0.000914
16	0x9e11	-0.005924
17	0x1252	0.0007715
18	0x145e	0.001066
19	0x1982	0.00269
20	0x1dd2	0.005684
21	0x19ff	0.002928
22	0x1c57	0.00424
23	0x98f6	-0.002422
24	0x1c3a	0.004128
25	0x9a33	-0.003027
26	0x9ae0	-0.003357
27	0x1987	0.002699
28	0xa18f	-0.01086
29	0x8696	-0.0001005
30	0x1824	0.002022
31	0x9c17	-0.003994
32	0x9c58	-0.004242
33	0x2330	0.01404
34	0x24ae	0.01828
35	0x9c8a	-0.004433
36	0x17c1	0.001893
37	0x181c	0.002007
38	0xa2ab	-0.01302
39	0x2492	0.01785
40	0x1102	0.0006113
41	0x20c0	0.00928
42	0x2064	0.008575
43	0x1d42	0.005135
44	0x1342	0.000886
45	0xa3e7	-0.015434
46	0x259a	0.02188
47	0x1b95	0.003702
48	0x1fce	0.00762
49	0x2358	0.01434
50	0x1f43	0.00709
51	0x21d5	0.01139
52	0xa096	-0.00896
53	0x1bf6	0.003887
54	0x9e0e	-0.005913
55	0x10cd	0.000586
56	0x1f82	0.00733
57	0x9c11	-0.00397
58	0x14e6	0.001196
59	0x1cd8	0.00473
60	0x216a	0.010574
61	0xa009	-0.00788
62	0x2496	0.01791
63	0xa56e	-0.02121
64	0x9cd2	-0.004707
65	0x131c	0.000868
66	0xa59b	-0.0219
67	0x17e5	0.001927
68	0xa193	-0.01089
69	0x1e7f	0.006344
70	0xa0c0	-0.00928
71	0x1447	0.001044
72	0xa2b8	-0.01312
73	0x9e65	-0.006245
74	0xa0a9	-0.0091
75	0x9e08	-0.00589
76	0x1cac	0.004562
77	0xa17b	-0.010704
78	0x1c16	0.00399
79	0xa29f	-0.01293
80	0xa065	-0.00858
81	0x1a08	0.002945
82	0x9d8a	-0.00541
83	0xa458	-0.01697
84	0x99f5	-0.002909
85	0x231b	0.01388
86	0x1f19	0.00693
87	0x905d	-0.0005326
88	0x22b4	0.01309
89	0x9a5f	-0.00311
90	0x203b	0.00826
91	0x202c	0.00815
92	0x9f30	-0.00702
93	0x17fb	0.001948
94	0x1d83	0.005383
95	0xa4c4	-0.01862
96	0x22ff	0.013664
97	0x1cec	0.004807
98	0x269c	0.02582
99	0x2999	0.04373
100	0x96a7	-0.001624
101	0x2659	0.0248
102	0x1fe1	0.007694
103	0x28d9	0.03787
104	0xa075	-0.008705
105	0x23e7	0.015434
106	0x9a6f	-0.003141
107	0x9c9c	-0.0045
108	0x232b	0.014
109	0x8ef2	-0.000424
110	0x1cc6	0.00466
111	0x19d0	0.002838
112	0x215c	0.01047
113	0x1109	0.0006146
114	0x21c0	0.01123
115	0x8da8	-0.0003452
116	0x2227	0.01202
117	0x9b38	-0.003525
118	0xa3e0	-0.01538
119	0x0bb2	0.0002348
120	0xa450	-0.01685
121	0x2083	0.00881
122	0x1d0a	0.00492
123	0x9c89	-0.00443
124	0x2072	0.00868
125	0x9cc5	-0.004658
126	0xa4bf	-0.01854
127	0x95c9	-0.001412
128	0x25c3	0.0225
129	0x243e	0.01657
130	0x26a3	0.02592
131	0x9e85	-0.006367
132	0x22b8	0.01312
133	0xa6f5	-0.02718
134	0x24e1	0.01906
135	0xa7e8	-0.03088
136	0x9e81	-0.00635
137	0x1aa3	0.00324
138	0x9c33	-0.0041
139	0x023f	3.43e-05
140	0x995a	-0.002613
141	0x9c67	-0.0043
142	0x1dc5	0.005634
143	0x1b28	0.003494
144	0x2051	0.00843
145	0x978b	-0.001842
146	0x989f	-0.002256
147	0x9abe	-0.003292
148	0x953d	-0.001279
149	0x1ccf	0.004696
150	0x165d	0.001554
151	0x1b10	0.003448
152	0x9b80	-0.003662
153	0xa169	-0.01057
154	0x1fd1	0.007633
155	0x9e46	-0.006126
156	0x1e24	0.005997
157	0x10f9	0.000607
158	0x9c1e	-0.00402
159	0x99ae	-0.002773
160	0xa1b9	-0.01118
161	0x99b8	-0.002792
162	0x0bc3	0.0002369
163	0xa13d	-0.01023
164	0x2352	0.0143
165	0x1493	0.001117
166	0x9308	-0.0008583
167	0xacbb	-0.0739
168	0x953b	-0.001277
169	0x9501	-0.001222
170	0x9ed1	-0.006657
171	0x12b1	0.000817
172	0x991b	-0.002493
173	0x9f89	-0.00736
174	0x241c	0.01605
175	0x1dd7	0.005703
176	0x2050	0.00842
177	0x97e5	-0.001927
178	0x9c1c	-0.004013
179	0xa288	-0.01276
180	0x2172	0.010635
181	0x247a	0.01749
182	0x9c12	-0.003975
183	0x1452	0.001055
184	0x1e4f	0.00616
185	0xa343	-0.01418
186	0x21de	0.01146
187	0x9fa0	-0.007446
188	0x2245	0.012245
189	0xa36a	-0.01448
190	0xa20d	-0.01182
191	0x995e	-0.00262
192	0x21f2	0.01161
193	0x1ee8	0.006744
194	0x1fdb	0.00767
195	0x20c4	0.00931
196	0xa092	-0.00893
197	0x22fe	0.01366
198	0x8914	-0.000155
199	0x26a5	0.02596
200	0x205e	0.00853
201	0x860a	-9.215e-05
202	0x1f5f	0.0072
203	0x9738	-0.001762
204	0x1c4a	0.00419
205	0x2041	0.00831
206	0x9f8e	-0.007378
207	0x1951	0.002596
208	0x171d	0.001737
209	0x1aed	0.003382
210	0x10f7	0.000606
211	0x16a2	0.001619
212	0x9b83	-0.003668
213	0xa1fc	-0.01169
214	0x81c7	-2.71e-05
215	0x96f5	-0.0016985
216	0x99ff	-0.002928
217	0x1cb3	0.00459
218	0x9462	-0.00107
219	0x14cc	0.001171
220	0x9b99	-0.00371
221	0x1b5c	0.003593
222	0x1a41	0.003054
223	0x18a1	0.00226
224	0x86a6	-0.00010145
225	0x9d04	-0.004898
226	0xa878	-0.0349
227	0xa248	-0.01227
228	0x24d6	0.01889
229	0x2822	0.0323
230	0x9932	-0.002537
231	0x297e	0.0429
232	0x1224	0.0007496
233	0xa0a5	-0.00907
234	0x9a53	-0.003088
235	0x1a7e	0.00317
236	0x9ce0	-0.00476
237	0xa09a	-0.00899
238	0x1ddc	0.005722
239	0x961b	-0.001491
240	0xa26c	-0.01254
241	0x1ffe	0.007805
242	0x993d	-0.002558
243	0x19c3	0.002813
244	0x08b9	0.0001441
245	0x9f02	-0.006844
246	0x9388	-0.0009193
247	0x21f8	0.01166
248	0x2067	0.0086
249	0xa01a	-0.00801
250	0x2223	0.011986
251	0x235c	0.01437
252	0x938c	-0.0009212
253	0x1420	0.001007
254	0x96be	-0.001646
255	0x9dc9	-0.00565

model/conv2d_4/Conv2D_bias f2 [32]
0	0x3515	0.3176
1	0x3b70	0.9297
2	0x3c6b	1.1045
3	0xb303	-0.2191
4	0x2bb5	0.0602
5	0x2c94	0.07153
6	0x373d	0.4524
7	0x3758	0.459
8	0xb0a4	-0.145
9	0x3456	0.271
10	0x3659	0.3967
11	0xb062	-0.137
12	0xb1bc	-0.1792
13	0x3561	0.3362
14	0x3614	0.38
15	0x35ce	0.3628
16	0x30ce	0.1501
17	0xb07e	-0.1404
18	0x391e	0.6396
19	0xacf7	-0.0776
20	0xae8e	-0.1024
21	0x34e0	0.3047
22	0x34bc	0.296
23	0x36f8	0.4355
24	0x38b5	0.5884
25	0x3b0d	0.8813
26	0x31e5	0.1842
27	0x2f90	0.11816
28	0x9e88	-0.00638
29	0x341b	0.2566
30	0x339c	0.2378
31	0xb2b0	-0.209
